last_brain.pth (torch_old, 5158 bytes, 12 tensors)

fc1.weight f4 [30, 5]
00000000: eac8 cebd 3857 bfbd 8a25 1e3e a410 00bf
00000010: cc52 913e c8cf 433f e315 883e 6f9f fa3d
00000020: 137c b53d 9468 58be f388 51be 7cbb 0c3f
00000030: 16e1 cbbe c3f6 593e cb11 ff3d 8548 c13d
00000040: 353b 183f f1fd c5bd ec0b 93bd 461a 17bf
00000050: 9239 2a3f f598 2b3d f39e b23e 64b8 9c3c
00000060: b168 f5be e26a 983e 67e6 873e 1cae 7a3d
00000070: ba88 d8be aaa8 40be 2edc 9a3d 392f 09bf
00000080: 7a9d fd3e 324e 983e 9eb7 a6bd 5aad 0b3f
00000090: f834 ac3e 5b6f ea3e 9b6b bcbe cb7a 963e
000000a0: 01df 233e 76d2 dc3c b257 2dbf 0400 66be
000000b0: 5ad3 c53e 58d3 30bd 5f28 43bd 6715 073f
000000c0: 0ae5 513f d2d1 a5be 40a7 303f e196 8c3e
000000d0: 3424 0bbd b512 4d3f 297b febe cf7f 2a3e
000000e0: 671e ec3c 43db 0cbf ee81 9ebe a25f 8bbe
000000f0: d4cf 9dbd 9986 083e 1bbb c1be c304 45be
00000100: 3501 153f c28b c03e 93bd 49be 087e d3bd
00000110: c582 0dbf a6d3 163e 5eb4 fd3e 5449 943d
00000120: 58bb d7bd c619 31bf d199 a83e 0029 f33c
00000130: 600f 533e 009c d8bd 4e4f b4be f072 43be
00000140: 7422 0ebd c0eb a53e 9b13 3dbf c49a b4bd
00000150: d6d8 0e3f 22f3 8abe 8edc d83c 5cc6 c1bd
00000160: d8f8 f23d 56e3 883e 996c d43e c576 053f
00000170: d533 4bbe 6c99 17bf d702 943e 0393 1f3e
00000180: f681 57be 479f 70bf ff76 14bf b796 983e
00000190: 8335 fabd 9a93 8a3e 2589 b93e d68b 87bd
000001a0: a8f5 d63e 3fb6 2d3e 7018 dbbd f9f8 273d
000001b0: 33f9 3a3e c97c 523e 1419 413e 18f2 36be
000001c0: c412 e3be ca79 a63e 3ce4 be3e 0ac4 773e
000001d0: da1c 54bf fad4 da3c 2f69 703e 0dad ec3d
000001e0: f4b5 953d f1c2 46be 3c17 803e 2370 503e
000001f0: bea6 833e a62f 373e d684 88be 1508 983c
00000200: a927 4f3f 71cd 52bf d1bd 933b 0fe2 f33e
00000210: 5b37 98be d290 9abe 114b 15be ddb6 4ebe
00000220: 0c74 d2be 4310 013e bf3d 223e 2b9c 4bbe
00000230: 1a58 d9be f69d e53e 5d1f 68bc d8d0 413d
00000240: 300b 5a3e a7a1 813e 95db 73be c9fb ec3e
00000250: feee e03e 002f 683d
-0.10096915 -0.093428075 0.15444008 -0.5002539 0.28383482 0.76488924 0.26579198 0.12237441
0.08861556 -0.21133643 -0.20462398 0.5497358 -0.39820164 0.21285538 0.124545656 0.0943766
0.5946534 -0.09667576 -0.07180008 -0.59024465 0.66494095 0.041893918 0.34886894 0.019130893
-0.47931436 0.29769045 0.2654297 0.0612012 -0.42291814 -0.1881434 0.07561527 -0.5358768
0.49534208 0.29747158 -0.08140491 0.5456139 0.33634162 0.45788082 -0.36800846 0.2939056
0.16003038 0.026955824 -0.6771194 -0.22460943 0.3863781 -0.043170303 -0.047645923 0.5276703
0.8199011 -0.32386643 0.69005203 0.2745886 -0.033970073 0.8010667 -0.4970334 0.16650318
0.02882309 -0.55022067 -0.30958503 -0.272214 -0.07705656 0.13332595 -0.37838063 -0.19240098
0.58204967 0.37606627 -0.19701223 -0.10326773 -0.55277663 0.14729175 0.49551672 0.07240549
-0.1053378 -0.6917995 0.32929853 0.029682636 0.20611334 -0.1057663 -0.35216755 -0.19086814
-0.034700826 0.32406425 -0.7385804 -0.08818582 0.55799615 -0.2713862 0.026472356 -0.09461662
0.118638694 0.26735944 0.41489103 0.5213435 -0.19843991 -0.5921848 0.28908417 0.15583424
-0.2104567 -0.9399304 -0.57994074 0.29802486 -0.12217238 0.27065736 0.36237445 -0.066184685
0.41984296 0.16964053 -0.106980205 0.041008923 0.18259124 0.20555414 0.18857223 -0.17865789
-0.44350255 0.32514793 0.37283504 0.24195877 -0.82856524 0.026712883 0.23477624 0.11556444
0.073100954 -0.19410302 0.25017726 0.20355277 0.25713152 0.1788927 -0.26663846 0.018558541
0.8091989 -0.8234473 0.004508712 0.47633407 -0.29729733 -0.30188614 -0.14579417 -0.20186944
-0.41104162 0.1260386 0.15843867 -0.19883792 -0.4245003 0.44847077 -0.014167634 0.04731831
0.2129333 0.25318643 -0.23814233 0.46285847 0.43932337 0.056685448

fc1.bias f4 [30]
00000000: 31f6 98be fa37 d5bd ecd0 b03e d680 433e
00000010: 4c32 73be 13ff f13e 7e3b 92be 61c4 e4bd
00000020: 98a3 71be 2874 7ebe e5bb bbbe c70a bc3e
00000030: d065 3e3e 9de6 97be 857c 82be 89d0 b4be
00000040: add8 a2bd 8f14 d53e 671a 84be bdc6 a5be
00000050: 688e debe bfab b3be d688 e3be bde2 d03e
00000060: ba45 cd3e 7720 b7be 940f 1b3f 29b2 c03e
00000070: 9ad0 123f bc54 16be
-0.2987533 -0.10411067 0.34534395 0.19092116 -0.23749655 0.4726492 -0.28561014 -0.11170269
-0.23597562 -0.24848998 -0.3666679 0.36726972 0.18593526 -0.2966813 -0.25485626 -0.3531535
-0.07951484 0.41617247 -0.25801393 -0.32378188 -0.43468022 -0.3509197 -0.44440335 0.40797988
0.4009226 -0.35766956 0.60570645 0.37635925 0.5734955 -0.14680761

fc2.weight f4 [3, 30]
00000000: dcfe 1f3d 2d1c c9bc 052d 29be 7ba3 95bd
00000010: f4b2 13bf d5a0 32be bee7 ed3e 6884 8fbe
00000020: 2515 0f3d 4f61 91be 2677 b6be 272e d43e
00000030: 7730 ecbd 7246 c7bd d5ed 44be d652 1d3e
00000040: 2482 723d 61d2 f83d 5135 453c 471a 41be
00000050: 1775 823b 8470 323d 14a4 563d 72c0 ce3e
00000060: a628 bfbd 60a9 5ebb 846f 12be 7023 de3d
00000070: 85d3 77be c269 88be 6b0c d6be 966b 24be
00000080: 6670 503d 0089 0cbf c80c 903e 6fc1 813e
00000090: d487 243f 997f 96bd 7741 0fbe 2b1e 00bf
000000a0: b510 f8be 658f 803e d2bf 29be 0d23 28bf
000000b0: 0d00 e7be ab55 b6bd 54f2 22be 831c 933e
000000c0: d999 1ebf 6e4b 23be ef63 c8be 48ee ae3d
000000d0: 609a e53c 5bfc 5b3e aca0 0a3e 4cd8 e7be
000000e0: ee0a 583e b454 813d b49b bd3e 9af7 9b3d
000000f0: c78c 82be 4190 68be ea1b 8e3e 9570 cebd
00000100: a844 48be a7b3 273e bd01 303f 978d 74be
00000110: b4d1 90be a2dd f5be 0e19 babe 40f8 463e
00000120: 30f7 99be 56d0 64be 3d22 21bf 58d6 393e
00000130: 16d4 c8be 3bbf f13e 80bd 27be 9a44 bdbe
00000140: a47a 913e 4680 f7bd 9aca 103e d779 bf3d
00000150: 779f bc3d e682 fabe af22 003e 4c06 483e
00000160: 9b32 c03e 94e9 a43d
0.039061412 -0.024549568 -0.1652108 -0.07306572 -0.57694936 -0.17444165 0.46465868 -0.28030705
0.034932274 -0.28394553 -0.35637778 0.4144146 -0.115326814 -0.09730233 -0.1923135 0.1536363
0.059206143 0.121495016 0.012036637 -0.1885768 0.0039812434 0.043564335 0.05240257 0.403812
-0.09333925 -0.0033975467 -0.14300352 0.10846603 -0.24201782 -0.26643187 -0.4180635 -0.16056666
0.05088844 -0.54896545 0.2813475 0.2534289 0.6426976 -0.07348556 -0.13989817 -0.5004603
-0.48450246 0.251094 -0.1657708 -0.65678483 -0.45117226 -0.089030586 -0.15912753 0.2873269
-0.619535 -0.15946743 -0.39138743 0.08541542 0.028027713 0.21482985 0.13537854 -0.4528221
0.2109792 0.06314984 0.37032855 0.076155856 -0.2549803 -0.22711278 0.27755672 -0.10080067
-0.1955744 0.16377126 0.6875265 -0.23882137 -0.2828499 -0.48020655 -0.3634724 0.19430637
-0.30071402 -0.22345099 -0.6294287 0.18148172 -0.3922431 0.4721621 -0.16380882 -0.369664
0.2841388 -0.12085013 0.14139786 0.09349411 0.09210103 -0.48927993 0.1251323 0.19533652
0.3753861 0.08052364

fc2.bias f4 [3]
00000000: 470e 053e 34d8 7c3e cb5e 203e
0.12993728 0.2469185 0.1566116

exp_avg f4 [30, 5]
00000000: 8347 133a fc21 b2b4 5aa3 1c3a 158c 99b9
00000010: 158c 9939 9c1f 0939 3f4d 0cb9 c735 e9b8
00000020: 2988 6fb9 2988 6f39 5239 36b8 2ab7 cc38
00000030: 8f17 5039 dc0f 71b9 dc0f 7139 ef03 1d39
00000040: 51e2 3137 2cb6 db38 2b90 99b9 2b90 9939
00000050: 2a3f 36ba a3b6 b8b9 6867 78ba 4efc 71b9
00000060: 4efc 7139 0a87 b8b9 11a6 f5b7 9f62 9cb9
00000070: a034 5237 a034 52b7 d804 7a39 fce7 123a
00000080: 5883 a539 308e 843a 308e 84ba 7fd4 20b9
00000090: 82f4 8cb9 203c 82b9 9dab e8b9 9dab e839
000000a0: 58aa a8b6 af55 50b6 bcf3 d236 e99a f638
000000b0: e99a f6b8 da0b d8b9 57f0 6db9 ac9a 62ba
000000c0: 1308 ceb9 1308 ce39 7ad1 eab9 bde1 a2b9
000000d0: 5a77 81ba eec1 f7b9 eec1 f739 fa84 bcb9
000000e0: 4266 2cb9 2d67 6ab9 494c b838 494c b8b8
000000f0: 391c 7039 e710 b338 9ce7 8839 330f 9db8
00000100: 330f 9d38 10d7 663a c258 0cb5 5f81 6e3a
00000110: 0c5a 26ba 0c5a 263a c49c 163a 6af1 9fb8
00000120: c174 2a3a 964f abb9 964f ab39 0000 0000
00000130: 0000 0000 0000 0000 0000 0000 0000 0000
00000140: 75ca 9439 5157 b339 9458 9236 4c45 9939
00000150: 4c45 99b9 f798 59ba 9570 99b9 92e8 ebb9
00000160: 3b57 76b8 3b57 7638 9f78 803a 6289 fa38
00000170: a699 5a3a ced5 13ba ced5 133a ecad c0b6
00000180: 03ed 6db6 b8de f036 ec72 8037 ec72 80b7
00000190: d121 8c39 5e70 f632 d19a 9c39 42b0 efb9
000001a0: 42b0 ef39 0400 0000 0000 0000 0400 0000
000001b0: 0400 0080 0400 0000 0000 0000 0000 0000
000001c0: 0000 0000 0000 0000 0000 0000 5fda 62b9
000001d0: a1b8 0238 51ce 31b9 3b7a 013a 3b7a 01ba
000001e0: 159e 44b9 aa19 67b7 7ca4 22b9 50c7 be36
000001f0: 50c7 beb6 2f56 87b9 e2b4 c2b9 7d38 57ba
00000200: 550c 85b9 550c 8539 4217 9ab9 f187 04b8
00000210: 4dec 87b9 6085 7837 6085 78b7 7f3e 2d39
00000220: ccb8 ab39 781d 5339 d4e2 8339 d4e2 83b9
00000230: d5ec 02ba 5e21 7038 ab80 9bb9 e886 9137
00000240: e886 91b7 40a5 2cb9 f3db 31b8 25b1 7ab9
00000250: b940 e9b8 b940 e938
0.0005618261 -3.317981e-07 0.0005975269 -0.00029286803 0.00029286803 0.00013077114 -0.00013380217 -0.000111203226
-0.0002284354 0.0002284354 -4.3445565e-05 9.761595e-05 0.00019845202 -0.00022989459 0.00022989459 0.00014974152
1.06027155e-05 0.00010476666 -0.00029289848 0.00029289848 -0.0006952161 -0.0003523129 -0.0009475858 -0.00023077542
0.00023077542 -0.00035195827 -2.9283607e-05 -0.00029828117 1.2529228e-05 -1.2529228e-05 0.00023843662 0.00056040264
0.0003156911 0.0010113176 -0.0010113176 -0.0001533795 -0.00026885053 -0.0002484033 -0.0004437835 0.0004437835
-5.026621e-06 -3.104429e-06 6.286862e-06 0.00011759048 -0.00011759048 -0.0004120756 -0.00022691615 -0.0008644264
-0.00039297398 0.00039297398 -0.0004478803 -0.00031067236 -0.0009877488 -0.00047256 0.00047256 -0.0003595723
-0.00016441292 -0.00022354415 8.788013e-05 -8.788013e-05 0.00022898697 8.5385334e-05 0.00026112504 -7.4891745e-05
7.4891745e-05 0.00088058505 -5.2283224e-07 0.0009098257 -0.00063458155 0.00063458155 0.0005745406 -7.626678e-05
0.0006502383 -0.00032674958 0.00032674958 0.0 0.0 0.0 0.0 0.0
0.00028379602 0.00034206596 4.361451e-06 0.00029234064 -0.00029234064 -0.00083006866 -0.00029266314 -0.0004499597
-5.873221e-05 5.873221e-05 0.0009801573 0.000119465185 0.00083389354 -0.00056394644 0.00056394644 -5.742293e-06
-3.545371e-06 7.1784852e-06 1.5312304e-05 -1.5312304e-05 0.00026728076 2.8689268e-08 0.00029869986 -0.00045716955
0.00045716955 6e-45 0.0 6e-45 -6e-45 6e-45 0.0 0.0
0.0 0.0 0.0 -0.00021634389 3.1166364e-05 -0.00016956894 0.0004939173 -0.0004939173
-0.00018750907 -1.3774648e-05 -0.00015510799 5.6856443e-06 -5.6856443e-06 -0.00025813418 -0.00037137332 -0.00082100165
-0.00025376925 0.00025376925 -0.00029390497 -3.1597858e-05 -0.00025925264 1.4813006e-05 -1.4813006e-05 0.00016521847
0.00032753346 0.00020133506 0.00025155267 -0.00025155267 -0.0004994397 5.7251535e-05 -0.0002965977 1.7348168e-05
-1.7348168e-05 -0.00016464759 -4.2404932e-05 -0.0002390785 -0.00011122361 0.00011122361

exp_avg_sq f4 [30, 5]
00000000: 6237 9735 235b 0931 8e3a 9635 930e a535
00000010: 930e a535 b4ce 8635 09ed 8335 a5dd 0a35
00000020: bf6c 2e35 bf6c 2e35 dae9 a435 1bfe c035
00000030: fe5d 0e35 da5d b335 da5d b335 091c d834
00000040: c104 4335 cd05 b235 0752 0336 0752 0336
00000050: d1ed 6e36 8c70 3f36 134d 7336 90d3 ac36
00000060: 90d3 ac36 b5f1 9f35 8f94 5d35 c380 a135
00000070: b716 dd35 b716 dd35 4516 e835 73d4 8a35
00000080: 4ed3 3436 20e0 4f36 20e0 4f36 eb0a c035
00000090: 8be5 aa35 0369 6d35 ac04 7e35 ac04 7e35
000000a0: 471c a130 ab4e e02f 1bae 1230 f36a 8f34
000000b0: f36a 8f34 403d 3c36 b542 4836 ff1b 2736
000000c0: f0bf 6c36 f0bf 6c36 d1c3 4936 6c23 4936
000000d0: 2134 ed35 0d1b 6336 0d1b 6336 beae 0e35
000000e0: bb84 2435 64b7 d534 a86d e335 a86d e335
000000f0: 03cc b334 7506 9d34 7109 0934 2a18 e334
00000100: 2a18 e334 8382 3636 44f9 9b31 3d67 3636
00000110: ff78 2d36 ff78 2d36 7137 0836 4e0d 7935
00000120: bacf b635 c6e0 0136 c6e0 0136 0000 0000
00000130: 0000 0000 0000 0000 0000 0000 0000 0000
00000140: ae7a b633 a00e 3434 fb3c 0b30 e8d7 0035
00000150: e8d7 0035 7b9c 6936 9f20 7036 0172 cd35
00000160: 6f2d 2236 6f2d 2236 4df7 3536 6531 6335
00000170: 7a49 1a36 b628 1936 b628 1936 e1a5 f230
00000180: 164b 2b30 1832 4e30 3e2c 1d35 3e2c 1d35
00000190: 8e9b 0c34 6a5e 912b 6eb5 0934 e9ff e233
000001a0: e9ff e233 659b 4330 0000 0000 659b 4330
000001b0: 4ffb d72f 4ffb d72f 0000 0000 0000 0000
000001c0: 0000 0000 0000 0000 0000 0000 dae3 4a35
000001d0: af4d a034 3442 7435 262f e535 262f e535
000001e0: 057d 0235 ce92 dd34 da95 fc34 4b09 8435
000001f0: 4b09 8435 1800 7136 bf99 8636 246c bd35
00000200: b319 3736 b319 3736 ca0b 3735 bda8 e934
00000210: 906a 4335 aa67 8635 aa67 8635 7fc1 2735
00000220: b56a 4835 951f d234 4ec7 0135 4ec7 0135
00000230: 6a49 6e36 a388 5336 5e18 3736 2ed5 8636
00000240: 2ed5 8636 bbf8 5835 d9fd 3635 e855 6335
00000250: f219 ac35 f219 ac35
1.1266495e-06 1.998793e-09 1.1192913e-06 1.22977e-06 1.22977e-06 1.0043937e-06 9.829247e-07 5.173154e-07
6.49783e-07 6.49783e-07 1.2287012e-06 1.4379069e-06 5.30359e-07 1.3363854e-06 1.3363854e-06 4.0253533e-07
7.265008e-07 1.3263722e-06 1.9568267e-06 1.9568267e-06 3.560319e-06 2.8526729e-06 3.6254685e-06 5.1506286e-06
5.1506286e-06 1.1916769e-06 8.2545097e-07 1.2032909e-06 1.6472394e-06 1.6472394e-06 1.7291828e-06 1.0343632e-06
2.6945086e-06 3.0975862e-06 3.0975862e-06 1.4308292e-06 1.2732793e-06 8.844219e-07 9.462917e-07 9.462917e-07
1.1722329e-09 4.080126e-10 5.336191e-10 2.6713641e-07 2.6713641e-07 2.8049835e-06 2.984115e-06 2.4901235e-06
3.5278463e-06 3.5278463e-06 3.0065314e-06 2.9971952e-06 1.7673048e-06 3.3841382e-06 3.3841382e-06 5.3153406e-07
6.128791e-07 3.9807776e-07 1.6944732e-06 1.6944732e-06 3.3489786e-07 2.9248227e-07 1.2762554e-07 4.2299627e-07
4.2299627e-07 2.7196081e-06 4.539432e-09 2.7180206e-06 2.5849438e-06 2.5849438e-06 2.029785e-06 9.277909e-07
1.3620513e-06 1.9353333e-06 1.9353333e-06 0.0 0.0 0.0 0.0 0.0
8.497351e-08 1.6769127e-07 5.0654564e-10 4.79979e-07 4.79979e-07 3.481079e-06 3.5781775e-06 1.530687e-06
2.4166327e-06 2.4166327e-06 2.711505e-06 8.463597e-07 2.2990557e-06 2.2822474e-06 2.2822474e-06 1.7654963e-09
6.231614e-10 7.501355e-10 5.855144e-07 5.855144e-07 1.3095107e-07 1.0329075e-12 1.2825123e-07 1.0570495e-07
1.0570495e-07 7.1161416e-10 0.0 7.1161416e-10 3.9286838e-10 3.9286838e-10 0.0 0.0
0.0 0.0 0.0 7.558243e-07 2.9858845e-07 9.099342e-07 1.7075552e-06 1.7075552e-06
4.86107e-07 4.1271272e-07 4.704769e-07 9.837471e-07 9.837471e-07 3.5911853e-06 4.0114096e-06 1.411307e-06
2.7284084e-06 2.7284084e-06 6.818997e-07 4.3522405e-07 7.279823e-07 1.0013948e-06 1.0013948e-06 6.249392e-07
7.4661085e-07 3.9138527e-07 4.834627e-07 4.834627e-07 3.5507496e-06 3.1520983e-06 2.7283309e-06 4.0183286e-06
4.0183286e-06 8.082822e-07 6.816968e-07 8.46891e-07 1.282255e-06 1.282255e-06

exp_avg f4 [30]
00000000: 69a4 2a3a de0f b539 e18b 51ba 6b84 0f3a
00000010: f2ed 16ba 54c6 4fba 4a0f 8c39 37fe 7939
00000020: 4e8e 32b9 ae9d 0a3a 28e4 51b8 6912 d0ba
00000030: 3af9 983a 7473 9a3a c455 3d3a 0000 0000
00000040: da37 c638 c3af 2fbb 7291 b43a 0ec4 61b8
00000050: caf3 2d3a 0400 0000 0000 0000 f6b5 70ba
00000060: 32ee e3b9 b8b1 9d38 80c9 22ba 18ee 28ba
00000070: 9434 d7ba 3c5a 9ab9
0.00065094844 0.00034534832 -0.0007993561 0.0005474749 -0.00057575025 -0.00079259765 0.00026714272 0.00023841193
-0.00017028415 0.00052877783 -5.004197e-05 -0.0015874627 0.0011670955 0.0011783675 0.0007222558 0.0
9.451779e-05 -0.0026807643 0.0013776256 -5.382677e-05 0.00066357537 6e-45 0.0 -0.0009182388
-0.00043474283 7.519446e-05 -0.00062098354 -0.000644417 -0.0016418868 -0.000294404

exp_avg_sq f4 [30]
00000000: c318 2c36 711f 1436 9c7b a936 8115 4137
00000010: 705b f636 ba74 c536 6a34 c836 a0dc 2936
00000020: d9e3 0135 1f4a 1f37 c279 f036 38d1 d436
00000030: d285 4936 16fc b636 4d8e b536 0000 0000
00000040: c2b2 b835 889e 6937 865b f536 a8c4 8935
00000050: debb 3334 659b 4330 0000 0000 b10d 9336
00000060: 39e2 2736 a246 0437 74a6 6e36 b6e7 3136
00000070: ba65 8137 e075 f535
2.564441e-06 2.207202e-06 5.0509825e-06 1.1508703e-05 7.342016e-06 5.8846463e-06 5.9665663e-06 2.5311383e-06
4.8387807e-07 9.494396e-06 7.166732e-06 6.3424486e-06 3.0029228e-06 5.4533693e-06 5.4107863e-06 0.0
1.3761094e-06 1.3924793e-05 7.3122237e-06 1.026453e-06 1.673902e-07 7.1161416e-10 0.0 4.3825353e-06
2.5016618e-06 7.884259e-06 3.5561652e-06 2.6509929e-06 1.5425368e-05 1.8288229e-06

exp_avg f4 [3, 30]
00000000: f61c 92b9 2a91 733a ca97 3ab9 6e9b 403a
00000010: 6e9c 853a 5da3 dcb8 de3b a239 d081 c4b6
00000020: 0a37 5eb9 b165 983a 89b7 b83a b843 01ba
00000030: 2123 1bba ba3b 71b9 222b ecb9 0000 0000
00000040: ab78 b0b9 d9ac 0fba fa4d bfb9 f0c6 a5b9
00000050: 24d4 82b7 0000 0000 0000 0000 ae7c 7cb9
00000060: a065 8eb8 c0fc 8d3a 0078 e2b9 fd2a dd38
00000070: e0e9 fbb9 0795 2e3a bfb0 bfb9 ecdb 04ba
00000080: de1b 8a38 b848 4d37 ae96 25b9 d60d a1ba
00000090: e2cf a538 147a f6ba 6068 2fb9 d471 0d3a
000000a0: 8916 fe39 5c55 a038 debc e3b8 5d97 13ba
000000b0: 97ab 98ba 0000 0000 fa41 49b9 37bb 6eb9
000000c0: 1525 47ba 14a0 84b9 d9d5 6ab8 0400 0000
000000d0: 0000 0000 4ed5 11ba 6a1a 65ba 79b6 073a
000000e0: c45f 1bba 8481 8b38 efc3 f7b9 a17f 14b9
000000f0: c65b 8239 5cf5 013a aab8 a2ba e8cb 68b9
00000100: 8846 4a3a 4af4 acba 349c 9ab5 bf7b 323a
00000110: 414f 4439 a50c 5d3a 0977 193a 620f e5ba
00000120: a050 98b9 b1ba 5739 8559 ce39 0000 0000
00000130: 7df8 8e39 b6c9 c3ba 1c75 3938 fdc2 9239
00000140: 3706 bf36 0000 0000 0000 0000 841e 01bb
00000150: a81e a3ba 2156 ac39 b4a4 05bb 4730 cfba
00000160: 24bd dfba 2de5 123a
-0.00027868868 0.00092913455 -0.00017794888 0.00073473796 0.0010193714 -0.00010520846 0.00030943652 -5.8563674e-06
-0.00021192073 0.0011626986 0.0014092784 -0.00049310504 -0.00059180154 -0.00023005801 -0.00045045564 0.0
-0.0003365924 -0.00054807734 -0.00036488456 -0.00031619472 -1.5595993e-05 0.0 0.0 -0.0002407904
-6.790017e-05 0.0010832772 -0.00043195486 0.000105461084 -0.000480487 0.000665978 -0.00036562045 -0.00050681713
6.5855435e-05 1.2235883e-05 -0.00015791759 -0.0012287449 7.906534e-05 -0.0018804693 -0.00016728183 0.0005395685
0.00048463445 7.645294e-05 -0.00010859383 -0.000563016 -0.0011647817 0.0 -0.00019193432 -0.00022767192
-0.0007596773 -0.0002529627 -5.598911e-05 6e-45 0.0 -0.0005563096 -0.0008739593 0.0005177032
-0.0005927051 6.652161e-05 -0.00047257493 -0.00014161925 0.0002486391 0.0004957521 -0.0012414653 -0.00022201205
0.00077161985 -0.0013195362 -1.1519355e-06 0.0006808601 0.00018721541 0.0008432365 0.00058542244 -0.0017475898
-0.0002905177 0.00020573546 0.0003935808 0.0 0.0002726949 -0.0014937434 4.4216504e-05 0.00027992568
5.692967e-06 0.0 0.0 -0.0019702027 -0.0012445049 0.00032870568 -0.002039236 -0.0015807234
-0.0017069918 0.0005603608

exp_avg_sq f4 [3, 30]
00000000: 5ed0 c335 2db8 9937 b335 4536 fe3b 8937
00000010: c33e 3737 f1bf 1f37 24d0 2635 9a64 f936
00000020: 4dfb 8335 c273 8237 4b65 ed37 56c2 b335
00000030: e96a c635 047f ff34 2f06 dc34 0000 0000
00000040: 328c 2936 e195 f435 3f83 b935 18d2 c635
00000050: 83cd 2b2f 0000 0000 0000 0000 0b49 9436
00000060: 7b25 d736 ccb9 c037 c135 0e37 e7a4 1e37
00000070: 3a15 ab36 9199 9536 5d46 1536 4a87 5536
00000080: a1af 3637 95fd 9636 60f2 1436 14ce cf37
00000090: a4cb 5c34 7ecf b537 6cef 7c35 ce64 c636
000000a0: cbd0 a536 c98c 9636 2b56 9536 83d9 2236
000000b0: 2137 0937 0000 0000 e76f 3136 3a73 0137
000000c0: f747 ad36 21db 9935 2d39 0d33 e510 9e2f
000000d0: 0000 0000 ad12 4937 c639 b037 a83a 5737
000000e0: 5d27 e037 f984 9c37 6744 bc37 9d8e df35
000000f0: 81db 1435 7abf ae37 92bd 4e37 bf5d ac37
00000100: 7894 e536 0e23 c537 c8f6 9333 99a3 1937
00000110: 3a70 e834 da0e 9736 1ddc b737 8fc4 ce36
00000120: e1f9 0a36 ac42 c634 9025 9535 0000 0000
00000130: 58bf 5635 02ac b736 0d00 e735 7495 6435
00000140: 2686 7030 0000 0000 0000 0000 d717 9636
00000150: 466f fd36 30a6 c136 492e f637 8fd4 f336
00000160: b443 9137 5e31 ae35
1.4589275e-06 1.8324785e-05 2.9386545e-06 1.6359609e-05 1.0922263e-05 9.521828e-06 6.2142703e-07 7.43249e-06
9.833399e-07 1.5551112e-05 2.829977e-05 1.3393098e-06 1.4783265e-06 4.7589867e-07 4.0982692e-07 0.0
2.5264567e-06 1.8223037e-06 1.3821772e-06 1.4813295e-06 1.5625372e-10 0.0 0.0 4.419247e-06
6.4118626e-06 2.2974702e-05 8.476375e-06 9.455928e-06 5.098668e-06 4.4584235e-06 2.2243687e-06 3.1818222e-06
1.0888937e-05 4.499869e-06 2.21948e-06 2.4772286e-05 2.056318e-07 2.1673502e-05 9.422572e-07 5.912595e-06
4.94169e-06 4.486738e-06 4.4505773e-06 2.426649e-06 8.178672e-06 0.0 2.644019e-06 7.715827e-06
5.1641796e-06 1.1463163e-06 3.2881122e-08 2.8752037e-10 0.0 1.1984882e-05 2.1007738e-05 1.2828656e-05
2.672121e-05 1.865857e-05 2.2443199e-05 1.6656301e-06 5.5453717e-07 2.083158e-05 1.2322695e-05 2.0547652e-05
6.842016e-06 2.3500554e-05 6.89011e-08 9.157601e-06 4.3295023e-07 4.5018796e-06 2.1917798e-05 6.162161e-06
2.070905e-06 3.6928884e-07 1.1112297e-06 0.0 7.9999654e-07 5.4738493e-06 1.7210856e-06 8.51541e-07
8.750213e-10 0.0 0.0 4.4731237e-06 7.5529415e-06 5.771195e-06 2.9347038e-05 7.2667094e-06
1.7316874e-05 1.2978378e-06

exp_avg f4 [3]
00000000: 5633 c6b9 dc3d 9bba 5e13 62bb
-0.0003780375 -0.0011843997 -0.0034496407

exp_avg_sq f4 [3]
00000000: f5ad 1338 72aa e538 e55f 5e38
3.520954e-05 0.00010951319 5.3018233e-05
